…
  * Split in Data: {'Train': 11203, 'Val': 2397, 'Test': 2411}
  * Features: ['Tomato_Bacterial_spot', 'Tomato_Early_blight', 'Tomato_Late_blight', 'Tomato_Leaf_Mold', 'Tomato_Septoria_leaf_spot', 'Tomato_Spider_mites_Two_spotted_spider_mite', 'Tomato__Target_Spot', 'Tomato__Tomato_YellowLeaf__Curl_Virus', 'Tomato__Tomato_mosaic_virus', 'Tomato_healthy']
Model Summary: 
Model: "sequential_2"
_________________________________________________________________
 Layer (type)                Output Shape              Param #   
=================================================================
 conv2d_12 (Conv2D)          (None, 254, 254, 32)      896       
                                                                 
 max_pooling2d_12 (MaxPoolin  (None, 127, 127, 32)     0         
 g2D)                                                            
                                                                 
 conv2d_13 (Conv2D)          (None, 125, 125, 64)      18496     
                                                                 
 max_pooling2d_13 (MaxPoolin  (None, 62, 62, 64)       0         
 g2D)                                                            
                                                                 
 conv2d_14 (Conv2D)          (None, 60, 60, 64)        36928     
                                                                 
 max_pooling2d_14 (MaxPoolin  (None, 30, 30, 64)       0         
 g2D)                                                            
                                                                 
 conv2d_15 (Conv2D)          (None, 28, 28, 64)        36928     
                                                                 
 max_pooling2d_15 (MaxPoolin  (None, 14, 14, 64)       0         
 g2D)                                                            
                                                                 
 conv2d_16 (Conv2D)          (None, 12, 12, 64)        36928     
                                                                 
 max_pooling2d_16 (MaxPoolin  (None, 6, 6, 64)         0         
 g2D)                                                            
                                                                 
 conv2d_17 (Conv2D)          (None, 4, 4, 64)          36928     
                                                                 
 max_pooling2d_17 (MaxPoolin  (None, 2, 2, 64)         0         
 g2D)                                                            
                                                                 
 flatten_2 (Flatten)         (None, 256)               0         
                                                                 
 dense_4 (Dense)             (None, 64)                16448     
                                                                 
 dropout_2 (Dropout)         (None, 64)                0         
                                                                 
 dense_5 (Dense)             (None, 10)                650       
                                                                 
=================================================================
Total params: 184,202
Trainable params: 184,202
Non-trainable params: 0
_________________________________________________________________

Training Configurations: 
  * optimizer: adam
  * loss: <keras.losses.SparseCategoricalCrossentropy object at 0x0000029CC75B71F0>
…
