{
    "Model Name": "Pepper_Model1",
    "Data Description": {
        "Total Data": 2475,
        "Split in Data": {
            "Train": 1731,
            "Val": 370,
            "Test": 374
        },
        "Features": [
            "Pepper__bell___Bacterial_spot",
            "Pepper__bell___healthy"
        ]
    },
    "Model Summary": "Model: \"sequential\"\n_________________________________________________________________\n Layer (type)                Output Shape              Param #   \n=================================================================\n conv2d (Conv2D)             (None, 254, 254, 32)      896       \n                                                                 \n max_pooling2d (MaxPooling2D  (None, 127, 127, 32)     0         \n )                                                               \n                                                                 \n conv2d_1 (Conv2D)           (None, 125, 125, 64)      18496     \n                                                                 \n max_pooling2d_1 (MaxPooling  (None, 62, 62, 64)       0         \n 2D)                                                             \n                                                                 \n conv2d_2 (Conv2D)           (None, 60, 60, 64)        36928     \n                                                                 \n max_pooling2d_2 (MaxPooling  (None, 30, 30, 64)       0         \n 2D)                                                             \n                                                                 \n conv2d_3 (Conv2D)           (None, 28, 28, 64)        36928     \n                                                                 \n max_pooling2d_3 (MaxPooling  (None, 14, 14, 64)       0         \n 2D)                                                             \n                                                                 \n conv2d_4 (Conv2D)           (None, 12, 12, 64)        36928     \n                                                                 \n max_pooling2d_4 (MaxPooling  (None, 6, 6, 64)         0         \n 2D)                                                             \n                                                                 \n conv2d_5 (Conv2D)           (None, 4, 4, 64)          36928     \n                                                                 \n max_pooling2d_5 (MaxPooling  (None, 2, 2, 64)         0         \n 2D)                                                             \n                                                                 \n flatten (Flatten)           (None, 256)               0         \n                                                                 \n dense (Dense)               (None, 64)                16448     \n                                                                 \n dropout (Dropout)           (None, 64)                0         \n                                                                 \n dense_1 (Dense)             (None, 2)                 130       \n                                                                 \n=================================================================\nTotal params: 183,682\nTrainable params: 183,682\nNon-trainable params: 0\n_________________________________________________________________\n",
    "Training Configurations": {
        "optimizer": "adam",
        "loss": "<keras.losses.CategoricalCrossentropy object at 0x00000229D0372970>",
…
